test/test_cases/candy_pattern.onnx (onnx, 32207 bytes, 4 tensors)

conv1.conv2d.weight f4 [32, 3, 9, 9]
00000000: b010 e1bd 10fa 4dbc 527a 9c3c ce54 36bd
00000010: 02bf b43d 02cd b33d 7406 873d f0c0 f83d
00000020: fd08 083e 05d7 1abe a2d4 1cbe 5619 02be
00000030: dae2 87bd 104d 933d 3f16 043e 30e5 8e3d
00000040: 43af 273e d7e8 313e 8ec2 3fbe 7ea5 2cbe
00000050: 01b7 4fbe 23c3 f6bd 52ad 083e c960 0a3e
00000060: 8c5e 303e edc9 6f3e 4fc2 433e 370a a8be
00000070: e928 a1be 1f03 21be 3119 0abe e2c5 c03d
00000080: 6fdd b13d e6e1 263e 5ef3 423e 7cb3 2c3e
00000090: e997 9fbe 293b c3be be4a 98be 54bf 03be
000000a0: d606 0b3e 4402 c83d 03f6 943d 6a3b f53d
000000b0: 58b7 323e 1b7c 7fbe e26d afbe 06cb 9cbe
000000c0: cc08 f4bd 3ccb 043e 5057 623e 996c 473e
000000d0: fdc8 1d3e 9a19 323e 5c88 94be 4074 67be
000000e0: 259d 58be 5789 9ebd 89f5 e63d eb05 773e
000000f0: d1d5 463e 7096 463e c259 c23d 09cb 89be
00000100: fc96 9dbe 3369 80be b7d8 d63c 32f5 543e
00000110: 2c3d 7d3e d730 3b3e d43f 413e 77cd d23d
00000120: 9ac2 8cbe 6a6a 8fbe 6da4 46be eb9f 52bd
00000130: 30bb 1e3e 7516 e83d f22b eb3d ff8f f63d
00000140: a7cf e93c 19d5 46be 9e04 3abe 6002 ddbd
00000150: 2f5a 1dbe 40f2 23bd bc25 c33d 3a99 803d
00000160: ba1e e83d c971 263e 67f8 83be 00d9 5abe
00000170: 8931 61be 2b1b e1bd 785a e53c 0d26 fe3c
00000180: 8994 e33d 8891 363e 62bd 433e 6fbf ddbe
00000190: 39e0 90be c80f 6cbe a0f3 f0bd 7fe0 5e3c
000001a0: e2ab 0c3e 2026 dd3d 76eb 6a3e 0630 8f3e
000001b0: e9f0 ccbe 25a2 c0be b37b 8abe eb0d 35be
000001c0: bcc8 e8bb c203 a33d 1792 ae3d dd22 3b3e
000001d0: a1ab 2b3e 2988 c7be 369e e9be 0ecd 9cbe
000001e0: 0732 2abe 6f7f 1c3e 715f 6a3d d0a1 d73d
000001f0: 2dbd 5f3e e29f 5e3e b8a9 e5be a54e b2be
00000200: 9675 b7be 9e2d cfbd 6afa 4c3e 2962 0c3e
00000210: f46c ee3d 598b 253e bc07 723e 13b3 e5be
00000220: c063 d7be d67e abbe 7bfd 94bb e26d 3c3e
00000230: a41c 6b3e cb84 243e bf91 033e 6b19 fa3d
00000240: b84d d8be b0e1 c3be 670f 3fbe 835d 8ebd
00000250: 7796 433e b985 583e 714e 4f3e ddf8 413e
00000260: b212 2f3e 3500 a3be 374a a8be fc88 00be
00000270: 1add 0ebd 7304 263e 93a0 d53d 50a5 453e
00000280: 848a 243e 86d2 173e cf88 23be 8997 febd
00000290: f6ca 9abd 6fbd 8abc 94a7 a93c 8b0f cf3c
000002a0: d699 323b 6125 af3d 6352 893d 55b1 24be
000002b0: 004a b7bd ee1a 11bd 5540 963d da84 9e3d
000002c0: 88c3 fb3d 18bd a23d d1e9 cc3d d6cd db3d
000002d0: 086c 8cbe 9332 d2bd d913 7bbd 0f30 893d
000002e0: b7f7 143e 64ec ed3d bd55 d23d 5fca aa3d
000002f0: a9ef 1b3e 68a5 76be 2b80 40be b5b4 35be
00000300: d59e 8e3c 3f88 0f3e e98e 743d 067c 4b3d
00000310: 00eb 923d f97b 083e 3c96 8dbe 0235 7fbe
00000320: e39f 55be 4ebc 383d fabd 243e ef8e 273d
00000330: 9058 c23c fa5c ee3d f649 f13d 8b5d 3abe
00000340: 15b2 18be a13a 4dbe ceec 4abd 365d 1f3e
00000350: 774a 493d 426b 893d 21d7 013e 6670 733d
00000360: 1291 70be f003 02be f966 37be 4800 113c
00000370: ca6f c13d c268 aa3d 588d c6bb 6d9b c33d
00000380: 0bd8 ad3d dff9 1abe aec0 0abe dc3d 21be
00000390: 12df 4a3c 6085 4b3d 793f 033e da06 673d
000003a0: 3c1e bc3d 62c9 84bb 8b0f 46be 3783 24be
000003b0: d0c7 5cbd d237 5e3d 9b5e dd3d 25be 793d
000003c0: e3ad ba3d 202c cfbc 9038 613d c090 82bd
000003d0: 2bcb 22bd 1a90 993d 22fe 0ebd 3d08 bfbd
000003e0: aeca 27bd 7ccd ad3d 2ece d33d ba84 73bd
000003f0: 85ce 443b 0ea0 15bd 0af7 ac3c 8bc2 ebbd
-0.10989511 -0.012571827 0.019101296 -0.04451447 0.08825494 0.087793365 0.06593028 0.12146175
0.13284679 -0.15121086 -0.15315488 -0.12704977 -0.066350654 0.07192433 0.12899111 0.06977308
0.16375451 0.17373978 -0.1872656 -0.16860005 -0.20284654 -0.12048938 0.13347366 0.13513483
0.17223567 0.23416872 0.19117092 -0.32820293 -0.31476524 -0.15723847 -0.13486172 0.09412743
0.08684813 0.16297111 0.1903815 0.16865343 -0.31170586 -0.38131073 -0.29744524 -0.12865955
0.13576826 0.09766057 0.072734855 0.11974223 0.17452753 -0.24949686 -0.3426352 -0.30623645
-0.1191574 0.12968153 0.2210362 0.1947502 0.15408702 0.17392579 -0.29010284 -0.2260294
-0.21153696 -0.07741039 0.11277301 0.24123351 0.19417502 0.19393325 0.09489776 -0.26912716
-0.30779254 -0.2508026 0.026226385 0.2079666 0.24730366 0.1828035 0.18872005 0.102930956
-0.2749222 -0.28010875 -0.19398661 -0.05142204 0.15501094 0.11332408 0.11482991 0.12039184
0.0285414 -0.19417228 -0.18165824 -0.107914686 -0.15366434 -0.04002595 0.09528682 0.06279226
0.113339856 0.16254343 -0.25775453 -0.21371841 -0.21991552 -0.1099151 0.02799724 0.031024003
0.11112315 0.17828953 0.19115213 -0.43310115 -0.28296068 -0.23052895 -0.11765218 0.013603329
0.13737443 0.107982874 0.22941384 0.27966326 -0.4002755 -0.37623706 -0.270475 -0.1768109
-0.0071040075 0.07959701 0.08523958 0.18275018 0.1676469 -0.3897107 -0.45628518 -0.30625194
-0.16620646 0.15282987 0.057219926 0.1052891 0.21849509 0.21740678 -0.44856048 -0.34825626
-0.35831898 -0.10116123 0.200174 0.1370932 0.11641875 0.16166438 0.23635763 -0.44863185
-0.4206829 -0.33495206 -0.004546819 0.18401292 0.22960144 0.16066281 0.12848566 0.12211879
-0.42246795 -0.38258123 -0.1865822 -0.0695143 0.19100367 0.21144761 0.20244767 0.1894259
0.17096975 -0.31836095 -0.3286912 -0.12552255 -0.034878828 0.16212635 0.10431018 0.19301343
0.16068465 0.14826402 -0.15970157 -0.12431247 -0.07558243 -0.016936032 0.02070979 0.025275966
0.0027252338 0.08552051 0.06705167 -0.16083272 -0.08949661 -0.035426073 0.07336489 0.07740183
0.12293154 0.07946223 0.100055344 0.107326195 -0.2742617 -0.102635525 -0.061298225 0.066986196
0.1454762 0.116173536 0.102702595 0.083393805 0.15228142 -0.24086535 -0.18798892 -0.17744716
0.017409721 0.14016818 0.059706602 0.049678825 0.07173729 0.13328542 -0.27653682 -0.24922565
-0.20861773 0.045101456 0.16088095 0.040907796 0.02372387 0.116388276 0.11781685 -0.18199746
-0.14911683 -0.20041896 -0.04954224 0.15562901 0.04914328 0.06709911 0.12679721 0.059433363
-0.2349284 -0.12696815 -0.17910375 0.008850165 0.0944515 0.08320762 -0.00605933 0.095511295
0.084884726 -0.15134381 -0.13550064 -0.15746254 0.012382286 0.049687743 0.12817182 0.05640302
0.09185454 -0.004052327 -0.19341867 -0.1606568 -0.053901494 0.054252453 0.1080906 0.06097235
0.091151975 -0.025289595 0.054985583 -0.06375265 -0.039744537 0.07498188 -0.03491033 -0.09327743
-0.040964775 0.08486459 0.1034206 -0.05945275 0.0030030322 -0.036529593 0.021113891 -0.115117155

conv1.conv2d.bias f4 [32]
00000000: aaaa 11be 6863 1b3c 0ca7 993d 92e8 093d
00000010: 8736 8fbd eae4 f7bd a746 e9bd bdb5 dabd
00000020: 2fdf 133e d054 3d3c 9e7d 653e abec 2fbd
00000030: 2059 813e a215 033d 70c9 823d 1f05 c5bd
00000040: 6ecb 18bd 67de 463d 423d ac3e 2504 97bd
00000050: 4432 f8bc 2101 5e3d 8fc9 93bd 59aa eabc
00000060: 8885 863d c084 17be 4f02 563e c8f3 a5bb
00000070: 8412 d33d 9867 2a3e a59c ccbc 717d 413e
-0.1422526 0.0094841495 0.07502565 0.033669062 -0.06992822 -0.12104209 -0.11390429 -0.10679195
0.14440607 0.011555865 0.224112 -0.042950314 0.2526331 0.032003053 0.063860774 -0.096201174
-0.03730338 0.048551943 0.33640486 -0.073738374 -0.030297406 0.054200295 -0.072161786 -0.028645681
0.06568438 -0.14796734 0.20899318 -0.0050644614 0.10306266 0.1664108 -0.024977038 0.18895508

in1.weight f4 [32]
00000000: 39b1 063f 7dae 0e3e b963 c23e 7566 9f3e
00000010: c34d 1b3f 2b49 083f e2d9 723e eaab 433f
00000020: 38f9 db3e 0933 543e e444 2c3e 785d 343e
00000030: 42ae 0f3d 319e 803f 950e 6d3e 055a 473e
00000040: 97f1 76b9 2f1a ad3e 83b1 143f 73eb 133e
00000050: 7e47 653e a78e 6f3e ff2f 293e cda5 e93d
00000060: 4733 b23e dff5 be3d d655 d93e be83 283f
00000070: 5f04 143e 0d7f 133e d8a2 f13e a38f 963e
0.5261417 0.1393375 0.37966707 0.31132856 0.6066553 0.53236645 0.23715928 0.76434195
0.42963576 0.20722593 0.16823155 0.1761378 0.035078295 1.0048276 0.23150094 0.19467933
-0.00023550387 0.3380904 0.5808336 0.14445285 0.22390553 0.23394261 0.16522215 0.11408577
0.34804747 0.0932424 0.424483 0.6582602 0.14454792 0.14403935 0.47194552 0.2940646

in1.bias f4 [32]
00000000: 7ed1 ad3e 24bc 843e 1165 8e3f 851c 993f
00000010: cb36 913f 6caf 1a3f 1464 acbc c352 f63f
00000020: 462c d63e 2bcc d53e a16f 1fbd 2fde 25be
00000030: 4e5a 073e f5a4 d43f 5b91 2abe 39b8 fabd
00000040: a683 1bbd eb47 5e3f e593 8d3f 1b92 2dbe
00000050: e497 4cbe 3f6e 1bbe 10a4 123f 0635 613f
00000060: c7fe 293f e966 f93d f294 ed3f 6696 0940
00000070: 86dc b13e e538 92bd d818 723f be12 80bd
0.33948892 0.2592479 1.1124593 1.1961828 1.1344846 0.6042392 -0.021043815 1.9244007
0.41830653 0.4175733 -0.038924817 -0.16198038 0.13218042 1.6612841 -0.16657011 -0.12242169
-0.037967347 0.8682849 1.1060759 -0.16950266 -0.19979817 -0.15178774 0.5728159 0.8797153
0.66404384 0.12177832 1.856108 2.1498046 0.3473856 -0.07139758 0.9456916 -0.06253575
