test/test_cases/insnorm.onnx (onnx, 527 bytes, 2 tensors)

in1.weight f4 [32]
0.5261417 0.1393375 0.37966707 0.31132856 0.6066553 0.53236645 0.23715928 0.76434195
0.42963576 0.20722593 0.16823155 0.1761378 0.035078295 1.0048276 0.23150094 0.19467933
-0.00023550387 0.3380904 0.5808336 0.14445285 0.22390553 0.23394261 0.16522215 0.11408577
0.34804747 0.0932424 0.424483 0.6582602 0.14454792 0.14403935 0.47194552 0.2940646
00000000: 39b1 063f 7dae 0e3e b963 c23e 7566 9f3e
00000010: c34d 1b3f 2b49 083f e2d9 723e eaab 433f
00000020: 38f9 db3e 0933 543e e444 2c3e 785d 343e
00000030: 42ae 0f3d 319e 803f 950e 6d3e 055a 473e
00000040: 97f1 76b9 2f1a ad3e 83b1 143f 73eb 133e
00000050: 7e47 653e a78e 6f3e ff2f 293e cda5 e93d
00000060: 4733 b23e dff5 be3d d655 d93e be83 283f
00000070: 5f04 143e 0d7f 133e d8a2 f13e a38f 963e

in1.bias f4 [32]
0.33948892 0.2592479 1.1124593 1.1961828 1.1344846 0.6042392 -0.021043815 1.9244007
0.41830653 0.4175733 -0.038924817 -0.16198038 0.13218042 1.6612841 -0.16657011 -0.12242169
-0.037967347 0.8682849 1.1060759 -0.16950266 -0.19979817 -0.15178774 0.5728159 0.8797153
0.66404384 0.12177832 1.856108 2.1498046 0.3473856 -0.07139758 0.9456916 -0.06253575
00000000: 7ed1 ad3e 24bc 843e 1165 8e3f 851c 993f
00000010: cb36 913f 6caf 1a3f 1464 acbc c352 f63f
00000020: 462c d63e 2bcc d53e a16f 1fbd 2fde 25be
00000030: 4e5a 073e f5a4 d43f 5b91 2abe 39b8 fabd
00000040: a683 1bbd eb47 5e3f e593 8d3f 1b92 2dbe
00000050: e497 4cbe 3f6e 1bbe 10a4 123f 0635 613f
00000060: c7fe 293f e966 f93d f294 ed3f 6696 0940
00000070: 86dc b13e e538 92bd d818 723f be12 80bd
